framework/tests-pytorch/test-model/images-model/statedict.pth (torch, 251167 bytes, 10 tensors)

conv1.weight f4 [6, 3, 5, 5]
000000 10 58 15 3e 65 bc c2 bd 32 38 d7 bc 44 ef b9 bc
       0.14584374 -0.0950859 -0.026271913 -0.022697099
000010 4c d4 d6 bd 07 66 31 3e a5 d4 ae be 69 cd 26 3d
       -0.10489711 0.17324077 -0.3414661 0.04072324
000020 ef 52 2f 3d 66 7f 82 bd f1 f1 a4 bc 64 a8 17 bf
       0.0428037 -0.063719556 -0.020134898 -0.5924132
000030 c2 2f 16 3e 57 05 9d 3e ac 46 39 be 23 ce fd bc
       0.14666656 0.30668136 -0.18093365 -0.030982083
000040 1f d3 20 bf 61 6e a5 3e 6e bc 01 3f 89 bc 9e bd
       -0.62822145 0.32310775 0.50678146 -0.07750804
000050 d6 cb 81 3d 75 20 d6 be 27 55 77 3e 12 61 99 3e
       0.06337707 -0.41821638 0.24153577 0.2995687
000060 af 2e 8a bd 02 18 46 3e eb b3 32 bd 22 97 f7 3c
       -0.067471854 0.19345096 -0.043628614 0.030223433
000070 14 f4 fa ba c7 4b d6 3c f4 3f 36 3e cc e2 8b be
       -0.0019146227 0.02615918 0.17797834 -0.2732147
000080 e5 76 62 bc e9 98 1a 3e 15 31 f1 3d e4 b4 4f 3d
       -0.013822292 0.15097393 0.1177694 0.05070962
000090 98 4c 0c bf b2 e4 1c 3e 7c 7c e4 3e c8 0e 99 bd
       -0.5480437 0.15321615 0.44626224 -0.074735224
0000a0 31 82 94 bc 63 74 2b bf 6a b3 54 3e 2c d3 02 3f
       -0.018128486 -0.6697447 0.20771566 0.5110347
0000b0 fa 0c 09 be 1d 42 de 3d 85 d4 b4 be 59 cc e0 3d
       -0.13383856 0.10852454 -0.3531839 0.10976476
0000c0 c5 e3 51 3e 46 01 1a be 08 d8 bc 3d c9 14 19 be
       0.20497043 -0.15039548 0.09220892 -0.14949335
0000d0 ef 12 81 3d 54 1c 89 bd ae a6 cf bd b8 ba f7 3d
       0.063024394 -0.06694856 -0.101392135 0.12096161
0000e0 75 bf 8e be a7 10 47 3d 45 d2 3b 3e 12 1b ee bd
       -0.27880445 0.048599865 0.1834193 -0.11626257
0000f0 91 59 f2 3c 72 81 d6 be d7 99 3c 3e fc cd 86 3e
       0.029583724 -0.41895634 0.1841806 0.2632903
000100 d1 47 52 be 4a 72 8e bd 28 74 0e bf 13 db a3 3e
       -0.20535208 -0.06955393 -0.5564599 0.32003078
000110 91 1a fe 3e 46 67 2b be b0 03 9f 3d 57 af 93 be
       0.49629644 -0.16738614 0.07764375 -0.2884471
000120 34 67 41 3e 81 7e 91 3e 5f eb 41 be ff 7c 9d 3d
       0.18887025 0.28416827 -0.18937443 0.07689857
000130 11 c1 1d 3d 75 4e 22 3e e2 fb b0 3e a7 c0 15 3e
       0.0385142 0.15850241 0.3456717 0.14624272
000140 41 82 28 3e 3d 77 49 3e e5 09 98 3e 8b 29 82 3e
       0.16455938 0.19674392 0.2969505 0.2542232
000150 fc c4 a8 3e ad 12 de 3d ce 77 90 3e fd f2 04 3e
       0.32962787 0.10843406 0.28216404 0.12983318
000160 45 89 12 3e 54 c5 56 3e d2 31 40 bd f6 40 58 3e
       0.14310177 0.20973712 -0.046922512 0.2111853
000170 cd c0 d1 3d d5 a1 c5 bc a0 04 be 3d 85 94 82 bd
       0.10241852 -0.02412502 0.09278226 -0.06375984
000180 95 38 c5 3c 1d 31 a7 bd bf 97 82 be 64 3e 50 3d
       0.024074832 -0.081636645 -0.25506398 0.05084075
000190 eb 57 72 bd 28 a2 22 be e7 ad 0c be 15 d4 9d be
       -0.059165876 -0.1588217 -0.13738213 -0.30825868
0001a0 12 e6 78 be f5 05 92 bc b9 7c 83 bc dc 45 7b be
       -0.24306515 -0.017825106 -0.016050683 -0.24538368
0001b0 c3 46 b2 be d3 5b bd be 31 13 33 3d 71 22 ea 3c
       -0.34819612 -0.3698412 0.043719474 0.028580876
0001c0 41 e2 86 be fb 6c c6 be a6 02 9f be 53 2e ca 3d
       -0.26344493 -0.3875502 -0.31056708 0.09872117
0001d0 45 e7 0a 3d b9 81 0c be 71 cc e8 be 0f 1a 6b be
       0.033911962 -0.1372136 -0.45468476 -0.2295916
0001e0 3c 7e ef bd e8 85 d1 3c a3 df 2d bd 68 8d ad be
       -0.11693999 0.025576547 -0.042449605 -0.33896947
0001f0 51 b1 15 be 9b 11 dc 3d 8a 60 55 ba 09 8c 05 bd
       -0.14618422 0.107455455 -0.00081396906 -0.03260425
000200 16 8f 8d 3b 29 fe cb bc 35 08 58 3e 85 7b be 3d
       0.0043200357 -0.024901466 0.2109688 0.09300903
000210 2b 0d 4f be ce 7a 8c be 07 c0 17 be d3 9c 76 3e
       -0.20219867 -0.27437443 -0.14819346 0.24083261
000220 17 96 39 3e 32 7a 1c be ad 6b 86 be 1a bf 84 bd
       0.18123661 -0.15280989 -0.26254025 -0.06481762
000230 1d e7 92 3e bc 61 13 3e 6c 60 67 3d b9 9f 79 be
       0.2869195 0.14392751 0.05648844 -0.24377336
000240 ae e7 62 3d a5 21 9a 3e fa 60 9c 3e 50 eb 3e 3e
       0.05539673 0.30103794 0.30542737 0.18644452
000250 02 e9 93 bc c4 bc 1d 3e 99 e3 81 3d cb 42 c9 3d
       -0.018055443 0.1540404 0.06342239 0.09827193
000260 55 75 a4 bb b7 41 58 3d 3c 77 d6 3d 6b 02 ef bd
       -0.00501887 0.052797046 0.10471961 -0.11670383
000270 92 7b 8b be 72 e6 c8 be e2 f6 ba be c4 88 b0 be
       -0.27242714 -0.39238316 -0.36516482 -0.34479344
000280 63 51 46 be 9f de ac be 13 b9 e7 be 38 f3 57 be
       -0.19366984 -0.33763596 -0.45258388 -0.21088874
000290 60 73 18 be 67 bb c4 3d 49 50 94 3e db b0 b3 3e
       -0.14887762 0.09606057 0.28967503 0.35095868
0002a0 ea 0e c0 3e f2 03 0b 3e b5 c5 9e 3e f6 d6 80 3e
       0.3751138 0.13575724 0.31010213 0.25164002
0002b0 ef a2 91 3e 0b 96 ac 3e 2a d7 2c 3d ff a0 68 3d
       0.2844462 0.33708224 0.042197384 0.056794163
0002c0 2c d4 46 3e ff 39 84 3d 23 ff 52 3e 4b 2a ce 3d
       0.19416875 0.064563744 0.2060514 0.100666605
0002d0 b1 e3 6d bd ee 3e a5 be 38 17 d4 be 65 69 70 be
       -0.05807847 -0.32274574 -0.41423965 -0.23477705
0002e0 72 53 51 be 88 b1 93 be 5c 69 a6 be b5 ea f0 be
       -0.20441988 -0.28846383 -0.32502258 -0.47054067
0002f0 6c 63 96 be 25 54 0f be cf 40 62 3d d9 91 68 3e
       -0.29372728 -0.13996942 0.055237588 0.22711886
000300 10 10 a3 3e 12 68 a3 3e 27 65 08 bc 81 4c 21 bd
       0.31848192 0.31915337 -0.008324898 -0.0393796
000310 cb ee 8a 3e b5 14 35 3e e9 18 04 3e 86 9f 3c bd
       0.2713531 0.1768368 0.12900127 -0.04605057
000320 71 1b 50 3e 70 7b 96 3e 59 5c b3 3e d0 b6 87 3e
       0.20322968 0.2939105 0.35031393 0.26506662
000330 13 39 a6 3e fd 44 e2 bc 4c 48 15 3d d0 d7 dc bd
       0.3246542 -0.027620787 0.0364459 -0.107833505
000340 bc 88 6c bd c7 bd cd bc ce 6e 33 be 6e c9 88 be
       -0.057747588 -0.025114907 -0.17522737 -0.2671618
000350 41 ed 2f be 59 7f 5c be b7 b9 1d 3d 85 65 6b bc
       -0.17180349 -0.21532954 0.03850719 -0.014367466
000360 59 58 03 3d 72 59 1f 3e 09 ea 86 3d 6f 44 9a 3d
       0.032066677 0.15561464 0.065876074 0.07532584
000370 ce 43 bd bd ae 74 6d 3d 67 f0 96 3d 58 da e8 bc
       -0.09241448 0.057972603 0.07370072 -0.028424427
000380 f5 b2 02 be 94 b8 3e 3d e2 9e d5 3d 68 be 0b be
       -0.12763579 0.046562746 0.10430695 -0.13646853
000390 72 29 9a bc 2a 53 e9 bb bd 83 3d bb 4c 24 42 3d
       -0.01881859 -0.0071205096 -0.0028917633 0.047397897
0003a0 0d da 77 3d d5 a4 3f bc 7a 60 f7 bd c7 44 1f be
       0.060510684 -0.011697014 -0.12078948 -0.1555358
0003b0 08 d8 85 bd 7f 8f 5c bd a8 d4 f6 bd af 33 91 bd
       -0.06535345 -0.053847786 -0.1205228 -0.07089936
0003c0 26 57 91 bd 9a 2a c1 bd 52 bb a5 3c 2d 65 93 3d
       -0.070967 -0.09431954 0.020230923 0.07197032
0003d0 30 b0 1c 3d 4c 3c 28 bd 75 b6 06 bd 3c b4 a1 3c
       0.038253963 -0.04107313 -0.03288885 0.019739263
0003e0 85 df 87 bc b1 10 9b ba 6e 20 3d bd 2c a6 b6 3c
       -0.016586075 -0.0011830536 -0.046173505 0.022296034
0003f0 7d 5b d7 bd fe 4b 28 be e8 2d fa bd 1d dc 98 bd
       -0.10515497 -0.16435239 -0.12215787 -0.07463858

conv1.bias f4 [6]
000000 98 39 2f be 62 0d 25 be 4e bc a6 be 10 7c b2 3e
       -0.17111814 -0.16118386 -0.3256554 0.34860277
000010 8f 30 6a 3e 3f 4c 4d be
       0.22870086 -0.20048617

conv2.weight f4 [16, 6, 5, 5]
000000 43 49 0c be 67 b3 2e be af 6b a8 bd 5d 25 25 be
       -0.13699822 -0.17060624 -0.08223664 -0.16127534
000010 51 79 a7 3d 8e b0 5a 3e d2 8e 45 bd 03 83 ff bc
       0.08177436 0.21356413 -0.048231907 -0.031190401
000020 cb 3a ce bd b6 45 14 bd 11 40 81 3e 8d 31 9d 3e
       -0.100698076 -0.036199294 0.2524419 0.30701867
000030 ff cf c5 3d 2b 13 a6 bc 9a d5 2a 3e e7 35 eb bc
       0.09658813 -0.020272812 0.16683045 -0.028712226
000040 94 6f f8 3d 0d 4d 1d 3d 41 67 4f 3e e4 82 9b 3e
       0.12130657 0.03840356 0.20254232 0.303733
000050 52 ca 51 be a6 21 1e be 61 d8 bd bd 5f 80 10 bd
       -0.20487335 -0.15442523 -0.092697866 -0.035278674
000060 08 23 23 bc 4b 9f 06 3e 0c 59 9f bd 90 2a 1d 3d
       -0.009957083 0.13146703 -0.07780656 0.03837067
000070 8b 84 07 3c e2 fb 45 3e 13 64 19 3a 73 95 29 bd
       0.008271347 0.19334367 0.0005851399 -0.04140229
000080 fb 5a e2 3a 82 22 23 bd 09 4f 31 3e 6b 9b 9a 3c
       0.0017269546 -0.03982783 0.17315306 0.018872937
000090 2d e1 09 be 02 84 1e 3e 51 2b e0 3d d5 fd d1 3d
       -0.13464804 0.15480044 0.10945762 0.10253493
0000a0 1a c7 56 3e aa b7 1e 3c f4 c4 97 bc c7 18 2e 3c
       0.20974389 0.009687344 -0.018526532 0.010626025
0000b0 1b b1 4c bc 04 2e 2a 3d 07 27 e1 bd 70 c3 2b be
       -0.012493397 0.04154779 -0.10993772 -0.16773772
0000c0 51 23 3b be ac 1e 02 be 8f 9c eb 3c f8 8f 5f bb
       -0.18275191 -0.12707013 0.028761176 -0.0034112912
0000d0 56 ad c9 bc 74 dd 8e bd d3 6b 03 be 97 91 99 bd
       -0.024618786 -0.069758326 -0.128341 -0.07498472
0000e0 b9 05 9d 3d 8e a8 d6 bc 43 84 ca bc 76 eb bc bc
       0.07667107 -0.02620342 -0.02472127 -0.023061495
0000f0 e6 e4 e5 bc ed 63 e8 3c 36 0e ff 3c d1 a8 81 3c
       -0.028063249 0.02836796 0.031134706 0.015827568
000100 63 44 8d 3c ef d8 5c 3d d1 bd 7c bc 85 5a c9 b9
       0.017244523 0.05391782 -0.015426115 -0.0003840515
000110 c2 dc ed 3d 89 a8 3a 3e 8b 0f 2a 3e 7c f4 b5 3e
       0.11614372 0.18228354 0.16607492 0.3553809
000120 c3 4f 62 3e c9 0a 56 bd 1b 33 3b be ee 28 fa 3d
       0.22100739 -0.05225638 -0.18281214 0.12214838
000130 ee 43 2d 3e 2f 2b 2d 3e ec c4 dc 3d 28 60 9c 3c
       0.16920444 0.16911004 0.10779747 0.01908882
000140 69 5a f3 3d c0 61 4c 3d 82 75 d4 3d 7d 72 bb 3d
       0.11882479 0.04989791 0.10373975 0.09152696
000150 fd d2 51 3a 8d b0 bc 3c 70 8a 7e 3d 16 c4 0f 3d
       0.0008004157 0.023033405 0.062143743 0.03509911
000160 1e c5 47 3b 7f ba 46 3d 19 9e 15 be c5 26 a2 bd
       0.0030482481 0.0485177 -0.1461109 -0.07917551
000170 c8 17 ec bd d4 13 6d bd 81 78 1e be f8 17 04 be
       -0.115279734 -0.057880238 -0.15475656 -0.12899768
000180 2f e3 61 be 6c f3 19 be 5d 1c 42 be be 8a 30 be
       -0.2205932 -0.15034264 -0.18956132 -0.17240426
000190 d0 40 06 bd b8 ae bf bd 2a 4e 48 bd 2a 0d 21 be
       -0.032776654 -0.09359497 -0.048902668 -0.15727678
0001a0 d6 9c 02 be a4 02 6f bd 8b 2c 2d bd 54 2f d0 bc
       -0.1275514 -0.058352128 -0.042278808 -0.025413193
0001b0 68 23 09 3d 68 3e fe bd b4 5a 07 3d b3 7b 52 bd
       0.03348103 -0.12414247 0.033045486 -0.0513875
0001c0 bf a3 9f bd 7c 47 39 bd 3d 2e 2b 3d 05 dd c6 bd
       -0.07794904 -0.04523419 0.041792143 -0.09710125
0001d0 41 d0 ce bc db c1 f4 3b 92 64 3e 3e 42 d6 dd bc
       -0.025245788 0.0074693984 0.18593052 -0.027079705
0001e0 34 22 77 3d 76 f2 81 3d 0a 30 2b 3e 82 c3 1f 3e
       0.060335353 0.06345074 0.16717544 0.15601924
0001f0 ad f8 7e bd 23 fe 33 be f4 0a df bd 46 0d 54 be
       -0.062248874 -0.17577414 -0.10890761 -0.20708188
000200 ef 13 1e be 15 43 94 be df 9b 02 3e 5f da 78 bd
       -0.15437292 -0.2895743 0.12754773 -0.06075513
000210 2b b2 ff 3c 7b 06 6c bd a3 84 21 bd 56 bb 2c 3e
       0.031212887 -0.057623368 -0.039433133 0.16868338
000220 41 c9 f1 bd f8 ed a7 bd 53 e8 bc 3a c3 12 94 bc
       -0.11805964 -0.08199686 0.00144125 -0.018075353
000230 65 0b 4f 3e 72 20 dc 3c 8e e2 af bd e1 ca 7d bc
       0.2021919 0.02687094 -0.08588134 -0.015490265
000240 58 0f b0 bd 0f 8f 0f 3e 34 56 d1 3e 10 cf b7 3e
       -0.085966766 0.14019416 0.4088608 0.35900164
000250 a3 72 d4 3d 3a aa 75 3c 53 19 0d 3d 02 20 1c 3d
       0.10373428 0.014994198 0.03444798 0.038116463
000260 26 4b a5 3c eb 51 43 bd e6 26 14 be 55 7a d4 3d
       0.020177435 -0.047685545 -0.14467964 0.103748955
000270 42 6f ae bd 66 64 1c be 08 eb f5 bd ea 3f 13 be
       -0.085173145 -0.15272674 -0.12007719 -0.1437985
000280 72 40 cb bd b6 3c df bd 83 10 f3 bd 41 43 f8 bd
       -0.09924401 -0.109002516 -0.11868384 -0.12122203
000290 f1 32 68 bd 6d b5 4d bd 7e 11 58 bd 6b ef 97 bc
       -0.056689207 -0.05022185 -0.052751057 -0.01854678
0002a0 7f ea 2b be 9c 61 26 be d6 6b 1b bc 9a 8f 46 bc
       -0.16788672 -0.16248173 -0.009486159 -0.012119198
0002b0 79 6d f9 bd 52 d4 56 bd 6c fe e9 bd 20 3f 21 bc
       -0.121790834 -0.05244858 -0.1142548 -0.00984171
0002c0 0d 41 65 bd 14 1a ad ba ff f6 94 bd 32 01 ef bd
       -0.05597024 -0.0013206624 -0.07273673 -0.1167015
0002d0 ac 8b e0 3c 36 4a fc bb 46 03 74 bc 9f b7 73 bb
       0.02741035 -0.0076992763 -0.014893359 -0.0037188304
0002e0 d0 71 d4 3c 96 0e 1d bd 7e 17 77 3c bd f8 b5 3a
       0.025933176 -0.03834399 0.015081285 0.0013883334
0002f0 22 eb b3 bc 5b b7 9f bd 7a 0b b5 bc 8a 5c 11 3c
       -0.021962706 -0.07798644 -0.022100199 0.008872161
000300 ba 51 3e bc a7 84 1f 3a ec 50 cc 3a d3 eb ad bc
       -0.011616165 0.00060851354 0.0015588081 -0.021230614
000310 78 34 9b bd 65 94 85 bc 1c d1 6d 3d 40 a2 2f bd
       -0.07578367 -0.016306112 0.05806075 -0.042879343
000320 df ce 03 3e 9b b1 c0 3d f2 94 c8 bc e8 ba e5 bd
       0.12871884 0.094088756 -0.024485085 -0.1121729
000330 59 26 cb 3c 0b 5d fb 3d 45 3c fc 3c c9 4b 27 bd
       0.024798559 0.12273606 0.030790458 -0.04084376
000340 ab bf 28 3d b2 e4 57 3d ed 21 08 3d 14 7a fc 3b
       0.041198414 0.052708335 0.03323548 0.0077049825
000350 e6 de 75 3c ea 0b 24 3d d6 d7 1a 3d 3b 0d b1 3d
       0.015006756 0.040050425 0.037803493 0.08645102
000360 83 44 d4 3d 4e 42 08 3d 6c 98 ff 3c b3 e5 8a 3d
       0.1036463 0.033266358 0.03120061 0.06782093
000370 bb 66 9a 3d 40 20 bf 3d 14 79 41 3e d7 b0 b4 3d
       0.075391255 0.09332323 0.18893844 0.08822792
000380 08 f7 05 3c 18 8a b5 bd 86 95 21 bd 3d 9c a8 3c
       0.008176573 -0.0886423 -0.039449237 0.020582313
000390 7f 2b 40 3c ea b6 c3 3d c7 11 bc 3d 0f 41 2f 3d
       0.01172912 0.095563725 0.09183078 0.042786654
0003a0 3d 1d 02 3d 0b 3c 1f bd 46 16 6b bd f5 ea 84 3c
       0.031766165 -0.03887562 -0.05739429 0.016225317
0003b0 8c 02 3d bd c2 3a 12 bd 1c 8c 30 3c 0b 31 2e bd
       -0.046145007 -0.035700567 0.010775592 -0.04252724
0003c0 6b 11 3a 3d 21 5e 87 bc d8 a4 c4 3c 3a d0 26 bd
       0.045426767 -0.016524376 0.024004385 -0.040725924
0003d0 32 a5 cd 3d e5 b7 a7 3d aa 98 f2 3b 5c 6d 00 3c
       0.10041274 0.08189372 0.007403453 0.007838573
0003e0 47 83 cd 3d a7 b7 8d 3d aa c1 9e 3d a4 ce e3 3c
       0.10034805 0.069197945 0.07751782 0.027808495
0003f0 20 60 88 bd 54 42 e8 bc 0e 67 ee bc b2 aa 25 3d
       -0.066589594 -0.02835194 -0.029101875 0.04044599

conv2.bias f4 [16]
000000 3b 3b 6b bf 81 0b 81 bc d5 8d ac be 76 32 39 be
       -0.91887254 -0.015752556 -0.3370196 -0.18085656
000010 ab 65 1e be 66 3b 88 3f 33 27 53 be 4c 7a 4e 3e
       -0.15468471 1.0643127 -0.20620422 0.2016384
000020 5c 65 94 3e e2 94 29 3e 64 34 ca 3e de 3b d7 3e
       0.2898358 0.165607 0.39493096 0.42037863
000030 5c 07 35 3d a8 df 38 be 34 d4 01 3f 13 3e 0c be
       0.04419647 -0.18054068 0.5071442 -0.13695554

fc1.weight f4 [120, 400]
000000 ed 66 4c 3d e0 e3 0e 3d f2 2d 8a bb eb 48 16 3c
       0.049902845 0.034885287 -0.004216903 0.009172658
000010 b2 50 6e 3d 94 09 02 3d 7b e8 2b bd 3a 38 9b bd
       0.058182426 0.031747416 -0.041969758 -0.07579084
000020 51 39 49 bd 8c 56 77 ba c6 07 b6 3c 1d ad 2e bd
       -0.049126927 -0.0009435199 0.022220504 -0.042645562
000030 32 a7 32 bd 38 94 ce 3c ff cf 8c 3c e1 9d 54 3c
       -0.04361648 0.02521716 0.017189024 0.012977094
000040 9f 11 90 bd c4 35 e6 3c 88 ea 0c 3d fd d4 f6 ba
       -0.07034611 0.02810181 0.034403354 -0.0018831786
000050 56 fb 5c 3d d5 0c f3 3a 45 3e 3d 3d 2d 87 17 bb
       0.05395063 0.0018543253 0.046201963 -0.0023121343
000060 7c 50 ca 3d ee f2 1e 3d 82 0c 54 bc f4 72 52 3d
       0.098786324 0.038805895 -0.012942435 0.05137916
000070 8a 2d 4d 3d a6 c3 52 3d 8d 93 a7 bc a6 10 58 bc
       0.050092258 0.051456116 -0.0204561 -0.013187563
000080 ca f0 fd 3c b9 84 41 3d 77 d9 82 3c 26 30 c7 bc
       0.030998606 0.047245715 0.015972836 -0.024314951
000090 c1 56 54 bd 41 64 75 bc 7a 73 07 3d e9 12 3c 3d
       -0.051840547 -0.014977516 0.03306911 0.04591647
0000a0 00 73 2b bd 6c 32 d1 bc 32 5a bb bb 06 a3 20 bd
       -0.04185772 -0.025536738 -0.005717539 -0.03921797
0000b0 1b 98 c8 3c 55 c4 b0 ba 74 27 c5 bc c0 f6 cd 3a
       0.024486592 -0.0013486246 -0.024066664 0.0015713796
0000c0 f0 1a ef bc 5f c5 33 bd 51 52 a2 3c 62 46 a5 3d
       -0.02918765 -0.0438894 0.019814642 0.08070065
0000d0 bb d7 80 ba f0 7b b0 bb ee 03 ba 3d 2c d9 f4 bb
       -0.0009829918 -0.0053858683 0.09082781 -0.007472178
0000e0 98 a3 64 bd 6a ba b3 bc 94 7d 5d bd 4b 96 1f 3d
       -0.055820078 -0.021939475 -0.05407484 0.03896169
0000f0 1e 16 5f 3c 45 0e 89 bd 2d 4f 0c bd b1 e2 cc bc
       0.013616113 -0.06692175 -0.034255195 -0.025010439
000100 51 29 8f 3b 9b c0 d9 3b 57 18 51 3d 8f d1 d6 3d
       0.004368939 0.006645275 0.051048603 0.10489189
000110 af f5 88 bc d3 d4 7b bd 87 c0 6e 3d 63 50 92 3d
       -0.016718714 -0.061482262 0.058289077 0.07144239
000120 2f 7d 10 3d f8 cd 42 bd 55 0b 24 3c dc 2b 96 3d
       0.035275634 -0.04755971 0.010012467 0.07332584
000130 62 7e 67 3d 4d fc f2 bb 8a db 69 3d 30 f5 28 3e
       0.056517012 -0.0074153305 0.057094134 0.16499782
000140 e8 aa 1d bc 94 d7 07 bd dd fa b5 bd 41 90 1f 3d
       -0.009623267 -0.033164576 -0.08885739 0.03895593
000150 59 af aa 3d f3 f6 4f bd 2a df 47 bd 7c 42 94 bd
       0.08334226 -0.05077262 -0.04879681 -0.072392434
000160 50 62 86 bd ac 4c d1 3c 5a b2 81 bb 2a 77 02 3d
       -0.0656172 0.025549255 -0.0039580287 0.031851925
000170 b9 09 16 bd 00 bf fd bc 56 0e 30 3d 70 39 1a bc
       -0.036630366 -0.030974865 0.04298242 -0.009413108
000180 22 e6 50 bc d6 ed 3f bd eb 69 a6 bd 35 4d 1e bd
       -0.01275018 -0.046857677 -0.08125671 -0.03864785
000190 e3 91 88 3c 6b e0 12 bd ca 2d 81 bd 63 5b f4 3b
       0.016671127 -0.035858553 -0.06307562 0.007457183
0001a0 c1 4b ad 3c 02 c9 86 bd 6a 16 88 bc bb d8 ce bd
       0.021154286 -0.06581308 -0.01661225 -0.10099932
0001b0 e1 26 92 bd 06 77 fc 3a 76 76 a3 3c a9 9f 63 bd
       -0.07136322 0.0019261546 0.019953948 -0.055572186
0001c0 c3 b8 a2 3c db 0d 6a 3c 49 14 42 3c a4 12 47 bc
       0.019863492 0.01428553 0.011845657 -0.01215044
0001d0 af 0d 01 bc 91 db ff 3b 7e e5 85 3b 70 c8 06 3d
       -0.007876798 0.007808157 0.0040861955 0.032905996
0001e0 3b 53 0c bd 46 d3 9e bc e2 48 1c bd e2 86 38 bd
       -0.034259062 -0.019387852 -0.038155444 -0.04505051
0001f0 b3 04 71 bd b3 8a 70 bd 47 97 0e bd 7b 5d 34 bb
       -0.058842372 -0.058726024 -0.034812238 -0.002752154
000200 38 54 f5 bd d0 82 10 be 6f 7e e4 bc d2 38 8a 3c
       -0.11978954 -0.14112401 -0.02789232 0.016872797
000210 b9 ca cf bc 73 dc 65 bd b4 2c 62 bd 9e db fe bd
       -0.02536522 -0.05611844 -0.055218413 -0.124442324
000220 31 cf 83 bd 9a 6e cb bd 14 e7 06 bc cb 46 7a bc
       -0.06436003 -0.09933205 -0.008233804 -0.015275667
000230 bc 23 6f bc 0c b7 ae bd e8 f6 73 3c 4b 0f 4e bd
       -0.014595922 -0.08531007 0.01489041 -0.050307553
000240 b5 12 37 bd 79 81 93 3b 16 f5 a1 bc c6 5d 40 3c
       -0.044695575 0.0045015183 -0.019770186 0.011741107
000250 8f 9f 04 3d f6 0f 9f bc 62 a5 de 3c 7d 96 ba bc
       0.03237873 -0.01941679 0.02717847 -0.022776837
000260 04 c0 30 3d 21 b2 d7 3d f4 3c 4c bd 0c 3e f4 ba
       0.04315187 0.10532022 -0.049862817 -0.0018634214
000270 41 7d 28 bd ea e1 b3 3c a4 e7 d6 ba da cc 1f bd
       -0.041135076 0.02195831 -0.0016395939 -0.03901372
000280 9b de fa bc 6a 5a 8f 3a 25 24 52 bc 95 00 4b 3d
       -0.030623725 0.001093698 -0.012826 0.049561102
000290 41 60 23 bd 6c ef 41 3d 35 23 4b 3d ff b7 4a 3a
       -0.039886717 0.04734747 0.049594123 0.0007733106
0002a0 ce 0c 06 3d f6 db 9c bb f8 68 78 3d ae 66 04 3e
       0.032727055 -0.0047869636 0.06064698 0.12929794
0002b0 24 e0 a0 3c e5 92 6b 3d 8e b4 d9 3d 65 b8 22 3c
       0.019638129 0.057513136 0.10630141 0.009931658
0002c0 2b 97 09 3d 5d eb 97 3d 26 2b 9f 3d a7 70 8a 3d
       0.03359143 0.07417939 0.07771902 0.06759768
0002d0 8e 3d 31 3d 0c 84 86 bd f5 52 0c bb 20 04 b1 3c
       0.043271594 -0.06568155 -0.002141175 0.021608412
0002e0 b5 c2 7e 3d 0c 9e 6b bd 5a c5 ff 3c f9 cb 60 bc
       0.062197406 -0.057523772 0.031222034 -0.013720506
0002f0 aa 13 43 3d ed b0 20 3d 59 63 bf bc cd c7 0d 3c
       0.047626175 0.03923123 -0.023362802 0.008653593
000300 70 f9 e9 bc a3 ee 04 ba e6 f6 c1 3c 6d 73 4e bd
       -0.028561324 -0.000507096 0.0236773 -0.050403047
000310 f9 cd a6 3a 03 ea 2c bc dc 32 30 bc d2 af 58 3d
       0.001272618 -0.01055384 -0.010754313 0.05290205
000320 fe 21 5e 3d ee c1 5c 3b 45 2e 22 bc 7d 10 ba 3c
       0.054231636 0.0033684927 -0.009898727 0.02271294
000330 e2 be b0 3d a3 9a 92 3c 1d 10 5a bd e0 9d ab bd
       0.08630158 0.017896002 -0.053238023 -0.08379722
000340 e4 63 0b bc c5 25 ea 3c b9 18 81 3b 5c 5f b7 bc
       -0.0085077025 0.028582463 0.0039397147 -0.022384338
000350 82 8b ff bd c2 fa a7 bd 95 f4 7a 3c ee 88 1c bc
       -0.12477781 -0.08202125 0.015317102 -0.009554131
000360 e2 9c 70 bd cf d6 ce bc ff 5b 48 bd 25 2d 10 bd
       -0.058743365 -0.025248913 -0.04891586 -0.035199303
000370 f8 8a 5b 3c 07 cf e0 3b 5c 0c 4c bd 92 11 a6 3c
       0.013399832 0.006860617 -0.049816474 0.02027205
000380 e3 41 42 3c 34 d3 94 3d 4f 18 62 3d 21 f9 01 bd
       0.011856529 0.07266846 0.055198964 -0.03173173
000390 64 16 03 3d 7c e9 96 3d 65 f4 8c 3d d0 ea c4 3d
       0.032003775 0.07368752 0.06882552 0.096150994
0003a0 07 cf 90 bc ca 28 3e 3d 7c 49 9c 3d 7b e8 10 3d
       -0.017676843 0.04642562 0.076312035 0.03537796
0003b0 25 b9 b6 3d 2f 80 1f 3d c1 4f 04 3d be 6b 2c ba
       0.08922032 0.038940605 0.03230262 -0.0006577334
0003c0 fc c2 9a bc 74 83 24 3c a8 61 9d 3c 19 72 e5 bb
       -0.018891804 0.0100411065 0.019211605 -0.007002127
0003d0 62 bb f2 ba d0 8e 4b 3d 62 32 10 bc d1 0d 89 3c
       -0.0018518979 0.049696743 -0.008801075 0.016730221
0003e0 59 11 01 bd 4d 11 82 3c 06 cc 07 3d 94 9e 47 bd
       -0.031510685 0.01587739 0.033153556 -0.048735216
0003f0 ef 17 df 3c 0d 80 25 bc 01 b9 a4 bc 79 73 8e 3a
       0.027233092 -0.0101013305 -0.020107748 0.0010868154

fc1.bias f4 [120]
000000 ab 57 37 be e6 8d b1 3d af 83 56 3b 94 bf 2c bd
       -0.17904536 0.08669643 0.0032732298 -0.04217489
000010 aa ae 02 3d e5 b6 3b 3e 46 01 c2 3d 29 07 6e 3d
       0.031904854 0.18331487 0.09472899 0.058112297
000020 03 ca 2d bd 0c 67 56 3e ea 8e 51 3d d1 95 ca bd
       -0.04242898 0.20937747 0.051161684 -0.098918565
000030 6c 8e f1 3d 62 b5 83 3c bb 35 8c 3c 44 0a da 3b
       0.11794743 0.016077701 0.017115464 0.006654056
000040 0e 92 38 3d d9 01 48 bc 3b 98 3d bc d0 2b 99 bd
       0.045061164 -0.012207472 -0.011571939 -0.0747906
000050 b7 46 c6 bc 37 4d 70 bd 3c 0e 0b bc 59 5e a7 3a
       -0.024203641 -0.058667388 -0.00848728 0.0012769207
000060 a6 3f 38 3e ca f0 43 3e 26 75 16 be 40 11 12 bc
       0.1799303 0.19134822 -0.14693126 -0.0089152455
000070 3e ef 5f 3d 16 6e e8 bc 06 87 17 bc 06 47 2d 3d
       0.05467152 -0.028372806 -0.009248501 0.04230406
000080 cc e7 14 3e 6e 63 2a bc 62 6c 39 3d 9d 6e 27 bd
       0.14541548 -0.010399682 0.045269378 -0.040876973
000090 e9 f3 38 bd 68 f3 22 3e 8d ae ef 3d 48 10 f9 3d
       -0.045154486 0.15913165 0.11703215 0.121613085
0000a0 30 0d be b9 19 1b b5 3d e4 c3 8c 3d c3 3c d3 bd
       -0.0003624945 0.08843059 0.06873301 -0.10314324
0000b0 e3 f6 0c bd ff ef d9 3d a8 eb c0 3c d6 00 95 3b
       -0.034415137 0.10641479 0.02354987 0.004547219
0000c0 14 17 7d bc 7b bc 85 bb 07 eb bc 3b 1a 23 45 bd
       -0.015447397 -0.0040813065 0.005765322 -0.04812918
0000d0 d5 d8 17 3e 67 33 bb 3d 83 d6 16 3c d6 a5 ec bd
       0.14828809 0.091406636 0.009206417 -0.11555068
0000e0 fd f1 63 bd 8b 81 7f bc 0d 5d e4 3d a5 f6 be bd
       -0.0556507 -0.01559485 0.111505605 -0.093243875
0000f0 d3 8b 39 bc 7c 33 ee 3c af ad ca 3c 05 b2 16 bd
       -0.011324841 0.029077284 0.024741022 -0.036790866
000100 bc 20 1d 3d 04 9f 05 3d 37 4c 9a 3b ba 5b c1 bb
       0.038361296 0.032622352 0.0047087925 -0.0059008272
000110 b2 f1 1c bd f7 9a e1 bd 58 16 2f 3d 00 f0 19 3d
       -0.038316436 -0.11015885 0.042745918 0.037582397
000120 7c 11 97 bd b1 e1 cb 3d b8 bf f1 bc 8d 14 9d 3d
       -0.07376382 0.099551566 -0.029510364 0.076699354
000130 ae 1e c9 bd 46 60 9d 3d 01 32 2c 3e d6 bc 11 3e
       -0.09820305 0.07684378 0.1681595 0.14232191
000140 97 9d a0 3c a4 79 96 3c 37 19 26 3e 7a 20 03 be
       0.019606395 0.01836855 0.16220556 -0.12805358
000150 af 43 0a 3b 3f 99 25 3d b0 cc 7d 3d 46 7f 27 be
       0.0021097471 0.04042935 0.061962783 -0.16357145
000160 87 a8 ef 3d e1 dc a2 3c b8 9b 38 3d 69 ee 06 3e
       0.11702066 0.019880714 0.04507038 0.13176884
000170 81 d6 8a 3d 80 1d 23 3c 7e e0 9e 3d fc 61 86 b9
       0.067791946 0.009955764 0.07757662 -0.00025631476
000180 05 45 e6 3d 22 77 82 3d 0f 7a 0d bd 95 62 f6 bb
       0.11243633 0.06370379 -0.034540232 -0.007519076
000190 8e 86 8d 3c 47 03 87 3d 41 3e 78 3d 29 5e 02 3e
       0.017276075 0.06592422 0.060606245 0.12731232
0001a0 80 ad 90 3c 30 c5 26 bd e6 19 ee 3c aa 41 12 bd
       0.017660856 -0.040715396 0.029065084 -0.035707153
0001b0 5a 05 dd 3c a7 5f 96 3c f2 e1 de bc 7e 65 13 be
       0.02698009 0.018356157 -0.027207348 -0.14394185
0001c0 6e 0d 79 3d 63 20 df bc 20 de 93 3d b3 b5 c6 3d
       0.060803823 -0.027237123 0.07220101 0.09702625
0001d0 a7 68 c4 bc 62 e4 00 3c 75 d2 25 3e 7d a1 10 3e
       -0.023975683 0.007866951 0.16193564 0.14124103

fc2.weight f4 [84, 120]
000000 a2 a6 e5 3d 4e 3e 9a bb 67 63 12 3d 60 69 c9 bc
       0.11213423 -0.0047071343 0.03573933 -0.02458638
000010 98 8c d4 3c d6 89 a2 bd 06 0e 20 3d 8e 9f be 3d
       0.025945947 -0.07936446 0.039075874 0.093077764
000020 b7 90 8b 3c bb 98 35 3c 81 c7 9a 3d 99 39 1f 3d
       0.017036779 0.011083777 0.075575836 0.03887329
000030 0c 32 07 bd 70 8e 14 bd 7b d1 93 3d 00 03 99 bc
       -0.033006713 -0.03626865 0.072176896 -0.018678188
000040 1c 53 c1 bc c5 13 93 bd a7 c0 8b 3b 8f b7 c8 3d
       -0.0235992 -0.07181505 0.0042649093 0.09800636
000050 04 c7 b4 3d cf fb a3 3d 20 e9 82 3d 99 d6 8d bd
       0.08827022 0.08007013 0.06392121 -0.06925697
000060 0b a0 40 bd 35 8b 34 3d 52 a3 5a bd 04 85 b7 bb
       -0.04702763 0.04407807 -0.05337841 -0.0056005735
000070 9e 57 39 3d e8 82 04 bd 3c 12 3f bd a8 a0 17 ba
       0.045249574 -0.032351404 -0.04664825 -0.00057841325
000080 d9 35 04 be b4 65 b1 bc 8d e8 d2 3b 7c 4a 57 3d
       -0.12911166 -0.021654941 0.0064364136 0.05256127
000090 d0 b8 98 3d 45 ea 39 bc 9f 1c 9e bd 71 1f 32 bd
       0.07457125 -0.011347358 -0.07720303 -0.043487016
0000a0 f2 3c fd 3c 84 e5 12 3d 10 a6 a2 3d 54 2a ac bd
       0.03091285 0.035863414 0.0794183 -0.08406511
0000b0 f3 f2 47 bd 95 53 c3 bc 59 4f 41 bb 2d 96 3d 3d
       -0.04881568 -0.023843566 -0.0029496758 0.046285797
0000c0 7e 41 20 bd 55 71 b0 bd cb 7e c8 bc a5 30 81 3d
       -0.03912496 -0.08615366 -0.024474522 0.06308106
0000d0 79 2e 80 bc bd d8 8b 3c b3 63 40 3d ae 8d 70 3d
       -0.01564716 0.017071122 0.04697008 0.058728866
0000e0 27 a6 72 3d 8b f7 7f 3d 5f d7 88 bd 4a 95 2a bd
       0.059240486 0.062491935 -0.06681704 -0.04164628
0000f0 3a 15 93 3c 2f 65 1a bd 86 a5 02 bd 1f 52 3d bd
       0.017954458 -0.037694152 -0.031896137 -0.046220895
000100 59 06 ec bb ea f7 ab bd 06 ac 92 3d a7 5c 92 3d
       -0.007202905 -0.08396895 0.07161717 0.07146578
000110 1d b6 90 bc 1c c6 2e bd ec 88 a1 bc 85 8e 64 3d
       -0.017664963 -0.0426694 -0.01971861 0.05579998
000120 10 ef 87 bd c2 d3 ac 3d 0a 6a 2e bd e3 d2 2d bd
       -0.066373944 0.08438827 -0.042581595 -0.042437445
000130 79 1b ab 3c e1 b1 a6 3d 6d 0b f4 bd 6a 59 e8 bc
       0.020887123 0.081393965 -0.11916242 -0.028362948
000140 39 68 50 bd 5d 7e 58 bd 42 20 ef bc 44 e7 43 3b
       -0.050880644 -0.052854884 -0.029190186 0.0029892484
000150 ae 89 08 3d 3a 34 90 bd b5 ee 9a bd d6 6c 91 3d
       0.033334427 -0.070412114 -0.07565061 0.07100837
000160 8d 6b 05 3d ee 14 13 bd aa 80 88 bd 02 8e cd bd
       0.03257327 -0.035908632 -0.06665166 -0.100368515
000170 b5 a0 4f 3d 1b 3f b0 bd 02 8a 61 bd 0b 0d 0a 3e
       0.05069037 -0.086057864 -0.055063255 0.13481538
000180 2c 99 82 3d 6c ae 4a bd df b1 8c 3c 7f 2e 6d bd
       0.063768715 -0.049482748 0.01717466 -0.05790567
000190 c1 a4 aa 3b 0c ac 82 bd 85 e3 d8 bd 89 83 a7 bb
       0.0052076285 -0.063804716 -0.10590271 -0.0051121158
0001a0 0e a8 2d bd 3c 77 20 3d 2c ac 6d bd 01 c2 9c bd
       -0.042396598 0.03917621 -0.058025524 -0.07654191
0001b0 b5 e5 15 3c ae 20 0f be e3 65 85 bc 7e c3 cf 3d
       0.009149005 -0.1397731 -0.016283935 0.10144709
0001c0 8d 15 c6 3c 20 7a 16 bd 58 f5 1b bd 07 93 09 bd
       0.024180198 -0.03673756 -0.038075775 -0.03358748
0001d0 9c 5e 86 3d 2c 79 66 bd d4 5a f1 bc e4 0f 1e 3d
       0.06561014 -0.056267902 -0.029462256 0.038589373
0001e0 e6 72 af bc 38 fc b7 3d 61 a9 8e 3d 11 70 72 bd
       -0.021417093 0.08983654 0.069659 -0.059188906
0001f0 19 1e 15 bd d9 c4 c6 bb 30 3c 86 3d 2f 30 82 bc
       -0.036405656 -0.0060659465 0.065544486 -0.015892116
000200 03 82 91 bc b9 8d 69 3d 11 46 ed 3d 0d 40 7e bc
       -0.01776219 0.057019923 0.1158563 -0.015518201
000210 e0 6e 0b 3e 77 c3 f9 ba 4a 9a 8e 3d 15 d4 8a bd
       0.13616514 -0.0019055445 0.06963022 -0.06778733
000220 1a 55 1c bd 0f b4 2a bd c8 fc 14 bd 10 ad 6b 3c
       -0.038167097 -0.041675624 -0.036373883 0.014384523
000230 22 fd e4 bc fb df bd 3d 8d 9c 3b 3d 94 03 59 3d
       -0.027952734 0.092712365 0.045803595 0.052981928
000240 40 5c d5 bb 09 e5 a4 bd e1 96 b2 bd 4f d0 a2 bc
       -0.006511241 -0.080514975 -0.08720184 -0.01987472
000250 70 96 6f bd c6 82 77 bd 98 0f 8f bd b4 69 77 3d
       -0.058493078 -0.06042745 -0.06985396 0.06040354
000260 ce 0d 52 3d aa 6e bc bc 38 59 c2 bd 87 75 28 bd
       0.051282696 -0.023001987 -0.094896734 -0.041127708
000270 0c 3c 4f bd a5 92 d9 bc f8 df 01 bd 26 9a 3e 3b
       -0.050594375 -0.026559183 -0.031707734 0.002908358
000280 51 a4 60 bd 2e 28 4a bc d3 ba 5f bd e6 ed 22 bd
       -0.054844204 -0.012338681 -0.05462153 -0.03977766
000290 69 89 d1 3c 38 3b 90 3d f0 cc 95 bd 11 14 83 bd
       0.025578218 0.07042545 -0.07314479 -0.06400312
0002a0 3a eb 30 3d a1 88 98 3d 04 ba c5 b8 bf b9 93 bd
       0.04319308 0.07447935 -9.42834e-05 -0.07213163
0002b0 7f c8 0f 3d 71 7b b1 bd 8a 57 9f 3d cc 21 ee 3b
       0.035103317 -0.08666123 0.077803686 0.0072672125
0002c0 12 48 25 3c 4a c3 9f 3a 6a aa 0a bd bd 13 9f bd
       0.010087984 0.0012188938 -0.033853926 -0.07767437
0002d0 dd 1f e1 bd 1b 26 ba 3d 00 59 a3 bd fd 72 b6 3d
       -0.109924056 0.09089299 -0.0797596 0.08908651
0002e0 f3 a5 b7 3c 55 58 9d 3d c5 b0 97 bc 0c 20 b4 bd
       0.022417998 0.076828636 -0.018516907 -0.08795175
0002f0 28 9d 3d bc 8c 83 72 bd d2 50 05 3d ee eb a5 3d
       -0.0115731135 -0.059207484 0.03254778 0.08101641
000300 6c 3e 20 bc 27 bb b8 bb 50 9d 8f bd 73 0e 73 bd
       -0.009780508 -0.0056375447 -0.07012427 -0.05933995
000310 62 84 d6 bd 58 a7 17 3d bf f3 ee bb 5f 20 9f bd
       -0.10474469 0.037024826 -0.0072922404 -0.07769846
000320 02 7e e6 3c 80 86 54 3d dc 43 64 3d 97 31 02 be
       0.028136257 0.05188608 0.05572878 -0.1271423
000330 c8 df bf 3c b6 53 06 bd 94 a9 0e bd 02 17 38 3c
       0.023422137 -0.032794677 -0.03482969 0.011235954
000340 99 cf d5 3d a8 d1 86 bd 6f e0 fe bc 96 72 36 3e
       0.10439987 -0.065829575 -0.031112878 0.17817149
000350 83 9a 8c 3d 90 a5 59 bd da f8 b0 3c e9 91 3d bd
       0.06865408 -0.05313641 0.021603037 -0.04628173
000360 a4 aa a6 3d 18 6c 47 bd a1 d0 c1 bd 7b 21 a6 bd
       0.08138016 -0.04868707 -0.09463621 -0.08111855
000370 18 57 e0 bd 20 ce 23 3d d7 9f 7a 3d e5 2d 97 bc
       -0.10954112 0.039991498 0.06118759 -0.018454501
000380 f1 03 97 bd b9 1c cb bc 48 70 95 bd a4 13 18 bd
       -0.07373799 -0.02479397 -0.072968066 -0.037128106
000390 fd 53 6a bd 19 e2 3e bc 78 16 1b bd cc 1d cb bd
       -0.057209004 -0.011650586 -0.037863225 -0.09917793
0003a0 e4 7c 83 3d 01 59 bf bc 08 b3 52 bc ae 89 8d 3d
       0.06420305 -0.02335787 -0.012860067 0.06911026
0003b0 46 7b 50 bd c3 ec 68 3c 4a c4 85 bd 57 52 2f 3d
       -0.050898813 0.014216605 -0.0653158 0.042803135
0003c0 db a3 85 3d 7a 37 7d bd 01 cb 8b 3d e3 1d ba 3c
       0.065253936 -0.061820485 0.06825829 0.02271933
0003d0 55 3f 1c bc 59 ab b6 3d 41 41 8f 3b a5 3a df bc
       -0.009536584 0.08919401 0.0043717925 -0.027249644
0003e0 f0 b4 52 3d 23 2b ab 3c d1 d3 5e bc cb cd 7e 3d
       0.051442087 0.020894593 -0.013600306 0.06220798
0003f0 c6 ae da bd 13 d5 a8 3d 88 b3 7b 3c 3c 4f fb bd
       -0.10677867 0.08243766 0.015362628 -0.12270972

fc2.bias f4 [84]
000000 7e 4b ce bd 65 ad 01 3e 98 ab 91 3d d0 1c 98 3e
       -0.10072993 0.12663801 0.07112807 0.29709482
000010 0e 9c 25 3c 36 e8 c4 bd c3 4f b1 3e 51 c9 1e 3e
       0.010108007 -0.09614603 0.34631166 0.15506484
000020 de f0 c4 bc 21 ce e4 3b 28 e9 21 be 39 98 4c be
       -0.024040636 0.0069825803 -0.15811598 -0.19979943
000030 52 d2 2a 3d b1 ac b1 bd 12 a0 e1 3c e6 19 61 be
       0.041704483 -0.086755164 0.027542148 -0.21982536
000040 38 c6 3f 3d 5f 20 a9 3c fb 79 67 bd f6 62 3a bd
       0.046819896 0.020645319 -0.056512814 -0.045504533
000050 5d d2 11 bd 45 b7 da bd 5f 52 2d 3d 2f 2c 85 3e
       -0.03560101 -0.10679487 0.042314883 0.26010272
000060 d6 14 00 3e fb 40 97 3d 6e 48 30 bd 9e 3d 9f 3e
       0.12507948 0.07385441 -0.043037824 0.31101698
000070 44 a0 2b bd ff 75 e8 3d 07 2b 18 3d 06 1a 32 bc
       -0.041900888 0.11350631 0.03715041 -0.010870462
000080 34 f6 77 3e 71 58 7c bd 9c 22 a5 3d 18 0c d3 3b
       0.24215013 -0.06160778 0.08063242 0.0064406507
000090 55 c0 ce 3e 1a 61 1c 3e 42 7c 15 be 94 6a 98 bd
       0.40381113 0.15271416 -0.14598182 -0.07442203
0000a0 d0 aa b6 3d a8 56 78 3e a5 73 59 bb 53 2b 41 3d
       0.08919299 0.24251807 -0.0033180502 0.047160458
0000b0 d1 8d 90 bd e4 1c 98 3e 97 0f df 3d b0 a6 94 bd
       -0.07058299 0.29709542 0.108916454 -0.072583556
0000c0 1e a9 9f 3e 26 6f d4 3d 47 0b 35 3d ac 96 2d bc
       0.31183714 0.103727624 0.044200208 -0.010595005
0000d0 6d c1 26 bd de c0 2c 3e 71 c7 39 3e 14 14 89 3e
       -0.04071181 0.16870448 0.18142487 0.2677313
0000e0 dc 54 89 3d 93 c7 12 3d 49 60 28 3e e6 2f 29 3c
       0.06705639 0.03583486 0.1644298 0.010326361
0000f0 ed e0 c0 3d 75 ea 96 bd 79 5a 41 be 87 e2 34 3e
       0.09417901 -0.07368938 -0.18882169 0.17664538
000100 83 25 e3 3d b5 fe 5c 3e a0 43 d3 3d 9b c9 06 3d
       0.11091139 0.21581538 0.10315633 0.03290711
000110 e9 bd 98 bd f5 9f 89 bd 97 33 fe 3d 45 3c f1 3c
       -0.074580975 -0.067199625 0.12412184 0.029447684
000120 ce d8 9b bc 01 b3 f1 bb f3 11 28 bd 56 4a 0e bd
       -0.019024279 -0.0073760753 -0.041032743 -0.03473886
000130 d7 50 77 3d 2d bf 6d bd 7b f3 6f bd 05 10 84 bc
       0.06037983 -0.058043648 -0.05858181 -0.01612092
000140 92 7e d3 3d db bb 91 3c da 7b b4 bd f7 11 09 3e
       0.10326876 0.017789772 -0.08812685 0.1338576

fc3.weight f4 [10, 84]
000000 05 65 7a 3e 2a 98 29 3e e9 aa c2 bd 8e 53 14 be
       0.24452598 0.16561952 -0.09505255 -0.14484999
000010 2c f0 61 3e bd 51 b0 3d 67 f1 0f be 30 28 7e 3e
       0.22064275 0.0860934 -0.14056931 0.24820018
000020 75 22 15 bc 03 0e 2d 3d 93 61 8c bd 06 a3 1b bc
       -0.0091024535 0.04224969 -0.06854548 -0.009499317
000030 d6 a3 51 bd 78 f0 69 3d d1 6b ed bd c9 0f 3e 3e
       -0.051181637 0.057114094 -0.1159283 0.18560709
000040 a7 ae 62 3d 57 9e 8b bd ef c6 2d be fd 76 cd 3d
       0.055342343 -0.0681731 -0.16970418 0.10032461
000050 b6 85 29 be 48 af 4a 3d 94 2a 13 3e 6d cc 24 3e
       -0.16554913 0.049483567 0.14371711 0.16093607
000060 89 3a b0 bd 3a 07 38 be 58 03 71 bd 52 9c 77 be
       -0.08604915 -0.17971507 -0.05884108 -0.24180725
000070 59 20 2f 3d 90 62 11 3e 37 f4 30 be 0c d6 cd bd
       0.04275546 0.14197755 -0.1728066 -0.10050592
000080 06 69 8e bd 3e c9 bc bc 44 df 59 3d 62 22 e1 bc
       -0.069536254 -0.023045179 0.05319144 -0.027482215
000090 cb 60 48 3e 79 e3 a3 3e 08 93 ae 3c 00 32 87 bd
       0.19568174 0.32009485 0.021310344 -0.066013336
0000a0 9a 24 0e 3e d6 85 7e 3e 18 64 ff 3c 2d f7 14 be
       0.1388115 0.24855742 0.031175658 -0.14547415
0000b0 bd 80 30 3d 4d a9 14 be fe 78 6b be a1 e8 47 3d
       0.043091524 -0.14517708 -0.22995374 0.048805837
0000c0 9b d8 c6 bb 56 e3 cb 3c ca 85 5a 3e ef 57 af 3b
       -0.006068302 0.024888676 0.21340099 0.0053510587
0000d0 f7 bc 72 3d 90 0e 6c be fd 25 95 3d 2b 36 2d be
       0.059262242 -0.2305243 0.07282636 -0.16915195
0000e0 3c f3 12 3d 7d 64 86 bc 93 f1 7a 3d 28 28 2b 3e
       0.035876498 -0.016405338 0.06126554 0.16714537
0000f0 5a 14 8b 3d be 8f a2 3a 02 3a ee bb b5 33 1e be
       0.06790991 0.0012402458 -0.0072700987 -0.15449412
000100 43 43 be bc d9 11 20 be d2 ec 19 bd 62 09 95 3d
       -0.023225432 -0.15631808 -0.037579365 0.0727718
000110 47 7b 07 3d 66 17 32 3d d9 1a b3 3d 9d 77 3f 3e
       0.03307655 0.043479346 0.08745355 0.18697973
000120 5c a9 e8 bc 3a 94 41 bd bd fc 54 3d 5a c9 aa bb
       -0.02840107 -0.0472605 0.051998843 -0.0052119913
000130 52 3f 89 3e a4 20 ab 3d 76 f9 16 3e 3b 84 56 3d
       0.26806122 0.08355835 0.147436 0.0523722
000140 75 85 83 3e 99 e5 29 3d 5e 4c 76 3d 2d 32 d0 3d
       0.25687757 0.041478727 0.060131423 0.1016582
000150 8c 40 f9 3c 85 22 00 bc 78 dd 96 bd 44 0d 3b 3d
       0.030426286 -0.00782073 -0.073664606 0.045666948
000160 c7 76 c1 bc 6d d0 40 3d 6b 93 fb bc 00 68 dd 3d
       -0.023616208 0.04707377 -0.030709943 0.10810852
000170 78 23 9b 3c 67 5e 2e 3e 38 02 24 be b0 68 da 3e
       0.018937811 0.17028199 -0.16016471 0.42657995
000180 f7 cd 78 be 9c 44 27 3c 0d 4d 19 3d 7b 2f 51 3d
       -0.2429732 0.010209229 0.037426997 0.05107067
000190 0c e9 dc 3c 74 4e 6b 3d ab 25 0e 3e e9 e2 02 3c
       0.026966594 0.057447866 0.13881557 0.00798867
0001a0 c4 66 45 3c 7d 7e 9b 3d 28 98 fe bd 11 30 ad bd
       0.012048427 0.07592485 -0.12431365 -0.084564336
0001b0 02 80 30 3e 92 ff 2d 3e ab 21 66 3c 18 60 ad be
       0.17236331 0.16992024 0.014046113 -0.33862376
0001c0 11 5e 7a 3d 32 a6 d2 3e 0d 3a b1 bd e5 dc e2 3d
       0.061124865 0.41142422 -0.086536504 0.110772885
0001d0 65 ca a4 be a1 31 2e 3d 6a 51 9a bd 6d d5 22 bd
       -0.32185665 0.0425278 -0.0753506 -0.03975432
0001e0 ff cb 86 be 4e 9b 6d be d8 ea f4 3c 50 cc 5e 3c
       -0.26327512 -0.23203775 0.029897138 0.013598517
0001f0 d5 47 e3 3d 57 a5 a9 bd 12 30 30 bd a0 bf 37 be
       0.11097685 -0.08283489 -0.043014593 -0.17944193
000200 4e b4 5b bd 9e 83 38 bd a7 c8 3b bd e0 f2 d1 bd
       -0.05363875 -0.045047395 -0.045845654 -0.10251403
000210 33 a7 8a be 5a e9 ab bd 13 0c ce 3d 13 73 be 3d
       -0.27080688 -0.08394118 0.10060897 0.092992924
000220 85 99 8b bc 61 96 43 be 2c 09 58 3e ec d6 7c bd
       -0.017040977 -0.19100334 0.21097249 -0.061728403
000230 7a 27 5d 3c 29 0f 99 bd 69 0f 6d 3e d1 a8 f2 3d
       0.0134981815 -0.07473595 0.2315041 0.118486054
000240 48 3a a7 3c 38 1a 83 bc bc 0c 55 3e 7a 89 6b be
       0.020413533 -0.016003713 0.20805639 -0.23001662
000250 c2 41 f7 bd 04 d7 f7 bd 85 9e 0a 3d 9e d0 fd bd
       -0.12073089 -0.12101558 0.033842582 -0.12393306
000260 86 e2 49 3d 80 a8 43 3e 15 e1 26 be 8e 24 5b 3e
       0.049288295 0.19107246 -0.162968 0.21400663
000270 7c bb ce 3d 69 3e 2e bd 7b ba b2 3d 16 75 9e 3c
       0.100943536 -0.042539988 0.087269746 0.01934294
000280 fd da 7a 3e ee 89 af 3d 9e 4a 11 3d cd c6 02 bc
       0.244976 0.0857123 0.03547155 -0.007981968
000290 b0 26 8d be 71 54 ce 3d bb 79 6c 3e f0 77 0a be
       -0.2756858 0.100747 0.23093311 -0.13522315
0002a0 dd 48 59 3d 8b 80 05 3e 8c f3 61 3c eb fa 87 3e
       0.053048003 0.13037317 0.013790976 0.26558623
0002b0 72 92 70 bc 51 2d bc bc dc e8 02 3d 9d 8a c7 3b
       -0.014683353 -0.022970827 0.031960353 0.006089522
0002c0 98 bd df bd 09 0d db bd 7d 80 d8 bd 26 ba 2b be
       -0.10924834 -0.10695846 -0.10571382 -0.16770229
0002d0 a1 5d 67 bd c5 1b 47 3b 1c 75 28 bd 93 91 e5 3d
       -0.056485776 0.0030381542 -0.04112731 0.11209407
0002e0 cc bb 9c 3c 4b 5c ca 3c fc a3 17 3e bf 71 b3 3d
       0.019132517 0.024702212 0.14808649 0.0876193
0002f0 e1 06 f5 3d 33 0f b9 bd 05 99 9c bd b5 69 c2 3e
       0.11964203 -0.09036102 -0.07646374 0.37971273
000300 ab dd ad bd 16 8c b1 3c b3 e8 83 bb 00 f6 87 bc
       -0.084895454 0.021673243 -0.0040255426 -0.016596794
000310 9a df 0b be c2 93 05 be 48 fa 8b 3c bb 6d 89 bd
       -0.13659516 -0.13044646 0.017087117 -0.067103826
000320 6d 2e 09 3e 36 06 32 3d 7c 24 47 3d 8f 9e ac 3b
       0.13396616 0.043462954 0.04861878 0.005267925
000330 a7 0a 28 3e ed a4 4a 3e 05 c4 08 bb 92 1c 06 3e
       0.16410314 0.19789477 -0.002086879 0.13096836
000340 17 9b 36 be b0 c9 76 be 2c 92 43 bd 29 de 09 3e
       -0.178326 -0.24100375 -0.047746822 0.13463654
000350 74 2c 24 bd de b0 a1 3e 1d ee 91 bd af dd 32 bd
       -0.040081456 0.3158025 -0.07125495 -0.043668445
000360 05 8c 48 3e 22 74 d8 bd 5d 17 02 3e 1d 03 29 bb
       0.19584663 -0.105690256 0.12704225 -0.002578921
000370 f8 0d ad 3a 05 5c 5c bc a7 d1 65 be 12 f7 5c 3c
       0.0013203016 -0.013449674 -0.22443257 0.0134866405
000380 0a 18 a5 bd 53 78 6b 3d 09 36 dd bd 0b 47 ea 3d
       -0.08061226 0.057487797 -0.10801322 0.114393316
000390 57 7f d2 3d 63 c4 66 3d ee 65 19 3d 2d 46 9a 3d
       0.102781944 0.056339633 0.037450723 0.07532916
0003a0 b7 0a 55 3d d5 ad f5 bc a8 e7 18 3d 2d 6b 9b bd
       0.05201217 -0.029990116 0.0373303 -0.075888015
0003b0 96 6e 8b bd 17 a8 8f 3d 41 8c f4 bc d9 05 2f be
       -0.06808202 0.070144825 -0.029852035 -0.17092074
0003c0 57 83 58 3d a4 e0 b5 bd 1c ec a4 3d 1a e8 62 3d
       0.05285963 -0.088807374 0.08052847 0.05539713
0003d0 ee 9f 04 be a0 19 96 3d 82 a7 01 be 77 d3 88 3d
       -0.12951633 0.07329106 -0.12661555 0.06680959
0003e0 d0 e0 92 3e 4a 15 ab 3d 4d d5 c6 3b ee f5 4c 3e
       0.28687143 0.0835367 0.006067908 0.2001569
0003f0 6a a8 c6 bc 9f 14 15 3d 99 31 fd 3c f0 65 e9 bd
       -0.024250228 0.03639662 0.030907439 -0.11396396

fc3.bias f4 [10]
000000 8e 87 d2 bd ba f3 09 bf 4e fd 2f 3e f5 db cd 3d
       -0.10279761 -0.5388752 0.17186472 0.10051719
000010 6c de e9 3e d9 d6 78 be e0 ee 7c 3e 8b 30 89 be
       0.45677507 -0.24300708 0.24700499 -0.26794848
000020 d2 d7 f2 3e c0 e4 9e be
       0.47430283 -0.31033897
